…
              Your browser does not support the audio element.\n                \n              \n\n\nWe are using a neural network with 3 hidden layers and each layer consisting of 256 neurons and we are using mean squared error loss function and optimizing it using Adam with a learning rate of 0.0001. We are training the neural network for a total of 1000 steps and displaying every 100th result. As can be seen in the following figures as the number of steps increases both the graphs converge.\nDescription of neural network\n\n\nSiren(\n  (net): Sequential(\n    (0): SineLayer(\n      (linear): Linear(in_features=1, out_features=256, bias=True)\n    )\n    (1): SineLayer(\n      (linear): Linear(in_features=256, out_features=256, bias=True)\n    )\n    (2): SineLayer(\n      (linear): Linear(in_features=256, out_features=256, bias=True)\n    )\n    (3): SineLayer(\n      (linear): Linear(in_features=256, out_features=256, bias=True)\n    )\n    (4): Linear(in_features=256, out_features=1, bias=True)\n  )\n)\n\n\n\n\nStep 0, Total loss 0.025424\nStep 100, Total loss 0.002972\nStep 200, Total loss 0.001123\nStep 300, Total loss 0.000861\nStep 400, Total loss 0.000702\nStep 500, Total loss 0.000586\nStep 600, Total loss 0.000535\nStep 700, Total loss 0.000538\nStep 800, Total loss 0.000665\nStep 900, Total loss 0.000362\n\n\n\n\n\n\n\n\n\n\n\n\n\n\n\n\
…
nt.\n                \n              \n\n\nHow much memory do we save through this compression technique?\n\n\nMemory of audio file: 1232886 bytes\n\n\n\n\nNumber of parameters in the neural network are 198145\n\n\n\n\nMemory consumed by the neural network is 796343 bytes\n\n\n\n\nImage compression\nFor the sake of an example let’s take the classic cameraman photo\nThis is the architecture used for modelling the image, it contains 3 hidden layers and 256 neurons in each layer using the adam optimizer with learning rate 1e-4.\n\n\nSiren(\n  (net): Sequential(\n    (0): SineLayer(\n      (linear): Linear(in_features=2, out_features=256, bias=True)\n    )\n    (1): SineLayer(\n      (linear): Linear(in_features=256, out_features=256, bias=True)\n    )\n    (2): SineLayer(\n      (linear): Linear(in_features=256, out_features=256, bias=True)\n    )\n    (3): SineLayer(\n      (linear): Linear(in_features=256, out_features=256, bias=True)\n    )\n    (4): Linear(in_features=256, out_features=1, bias=True)\n  )\n)\n\n\nNow let us train SIREN model on our dataset i.e the image. The loss and the current state of the Network is displayed for every 50th element.\n\n\nStep 0, Total loss 0.325293\nStep 50, Total loss 0.012300\nStep 100, Total loss 0.008443\nStep 150, Total loss 0.006012\nStep 200, Total loss 0.004077\nStep 250, Total loss 0.002673\nStep 300, Total loss 0.001977\nStep 350, Total loss 0.001566\nStep 400, Total loss 0.001294\nStep 450, Total loss 0.001094\nStep 500, Total loss 0.000939\n\n\n\n\n\n\n\n\n\n\n\n\n\n\n\n\n\n\n\n\n\n\n\n\n\n\n\n\n\n\n\n\n\n\n\nHere is an animation showing the learning the process of this image over SIREN:\nLet’s see how ReLU works in this setting. This is the architecture for the Neural Network:\n\n\nNetwork(\n  (net): Sequential(\n    (0): ReLULayer(\n      (linear): Linear(in_features=2, out_features=256, bias=True)\n    )\n    (1): ReLULayer(\n      (linear): Linear(in_features=256, out_features=256, bias=True)\n    )\n    (2): ReLULayer(\n      (linear): Linear(in_features=256, out_features=256, bias=True)\n    )\n    (3): ReLULayer(\n      (linear): Linear(in_features=256, out_features=256, bias=True)\n    )\n    (4): Linear(in_features=256, out_features=1, bias=True)\n  )\n)\n\n\n\n\nStep 0, Total loss 0.733969\nStep 50, Total loss 0.077224\nStep 100, Total loss 0.064925\nStep 150, Total loss 0.057928\nStep 200, Total loss 0.052542\nStep 250, Total loss 0.048083\nStep 300, Total loss 0.044299\nStep 350, Total loss 0.041403\nStep 400, Total loss 0.039117\nStep 450, Total loss 0.037259\nStep 500, Total loss 0.035712\n\
…
